-----------------------------------------------------------------------------------
                Layer (type)          Output Shape         Param #     Tr. Param #
===================================================================================
                DualResNet-1       [1, 64, 60, 80]       5,698,912       5,698,912
                DualResNet-2       [1, 64, 60, 80]       5,698,336       5,698,336
   Guided_Upsampling_Block-3     [1, 32, 120, 160]          94,880          94,880
   Guided_Upsampling_Block-4     [1, 32, 120, 160]          94,880          94,880
   Guided_Upsampling_Block-5     [1, 16, 240, 320]          24,400          24,400
   Guided_Upsampling_Block-6     [1, 16, 240, 320]          24,400          24,400
   Guided_Upsampling_Block-7     [1, 16, 240, 320]          24,400          24,400
   Guided_Upsampling_Block-8      [1, 1, 480, 640]           6,321           6,321
===================================================================================
Total params: 11,666,529
Trainable params: 11,666,529
Non-trainable params: 0
-----------------------------------------------------------------------------------


============================================== Hierarchical Summary ==============================================

DecnetSparseIncorporated(
…
